…
del_names).to(device)\n","ensemble_model.eval() "],"metadata":{"id":"stYFytogeIzI","colab":{"base_uri":"https://localhost:8080/"},"executionInfo":{"status":"ok","timestamp":1668607691207,"user_tz":-480,"elapsed":14,"user":{"displayName":"肇綺筠","userId":"00719410413703682557"}},"outputId":"5f6bf5eb-1eea-46fd-f2e4-092ccf036021"},"execution_count":28,"outputs":[{"output_type":"execute_result","data":{"text/plain":["ensembleNet(\n","  (models): ModuleList(\n","    (0): CIFARNIN(\n","      (features): Sequential(\n","        (stage1): Sequential(\n","          (unit1): NINConv(\n","            (conv): Conv2d(3, 192, kernel_size=(5, 5), stride=(1, 1), padding=(2, 2))\n","            (activ): ReLU(inplace=True)\n","          )\n","          (unit2): NINConv(\n","            (conv): Conv2d(192, 160, kernel_size=(1, 1), stride=(1, 1))\n","            (activ): ReLU(inplace=True)\n","          )\n","          (unit3): NINConv(\n","            (conv): Conv2d(160, 96, kernel_size=(1, 1), stride=(1, 1))\n","            (activ): ReLU(inplace=True)\n","          )\n","        )\n","        (stage2): Sequential(\n","          (pool2): MaxPool2d(kernel_size=3, stride=2, padding=1, dilation=1, ceil_mode=False)\n","          (dropout2): Dropout(p=0.5, inplace=False)\n","          (unit1): NINConv(\n","            (conv): Conv2d(96, 192, kernel_size=(5, 5), stride=(1, 1), padding=(2, 2))\n","            (activ): ReLU(inplace=True)\n","          )\n","          (unit2): NINConv(\n","            (conv): Conv2d(192, 192, kernel_size=(1, 1), stride=(1, 1))\n","            (activ): ReLU(inplace=True)\n","          )\n","          (unit3): NINConv(\n","            (conv): Conv2d(192, 192, kernel_size=(1, 1), stride=(1, 1))\n","            (activ): ReLU(inplace=True)\n","          )\n","        )\n","        (stage3): Sequential(\n","          (pool3): AvgPool2d(kernel_size=3, stride=2, padding=1)\n","          (dropout3): Dropout(p=0.5, inplace=False)\n","          (unit1): NINConv(\n","            (conv): Conv2d(192, 192, kernel_size=(3, 3), stride=(1, 1), padding=(1, 1))\n","            (activ): ReLU(inplace=True)\n","          )\n","          (unit2): NINConv(\n","            (conv): Conv2d(192, 192, kernel_size=(1, 1), stride=(1, 1))\n","            (activ): ReLU(inplace=True)\n","          )\n","        )\n","      )\n","      (output): Sequential(\n","        (final_conv): NINConv(\n","          (conv): Conv2d(192, 10, kernel_size=(1, 1), stride=(1, 1))\n","          (activ): ReLU(inplace=True)\n","        )\n","        (final_pool): AvgPool2d(kernel_size=8, stride=1, padding=0)\n","      )\n","    )\n","    (1): CIFARResNet(\n","      (features): Sequential(\n","        (init_block): ConvBlock(\n","          (conv): Conv2d(3, 16, kernel_size=(3, 3), stride=(1, 1), padding=(1, 1), bias=False)\n","          (bn): BatchNorm2d(16, eps=1e-05, momentum=0.1, affine=True, track_running_stats=True)\n","          (activ): ReLU(inplace=True)\n","        )\n","        (stage1): Sequential(\n","          (unit1): ResUnit(\n","            (body): ResBlock(\n","              (conv1): ConvBlock(\n","                (conv): Conv2d(16, 16, kernel_size=(3, 3), stride=(1, 1), padding=(1, 1), bias=False)\n","                (bn): BatchNorm2d(16, eps=1e-05, momentum=0.1, affine=True, track_running_stats=True)\n","                (activ): ReLU(inplace=True)\n","              )\n","              (conv2): ConvBlock(\n","                (conv): Conv2d(16, 16, kernel_size=(3, 3), stride=(1, 1), padding=(1, 1), bias=False)\n","                (bn): BatchNorm2d(16, eps=1e-05, momentum=0.1, affine=True, track_running_stats=True)\n","              )\n","            )\n","            (activ): ReLU(inplace=True)\n","          )\n","          (unit2): ResUnit(\n","            (body): ResBlock(\n","              (conv1): ConvBlock(\n","                (conv): Conv2d(16, 16, kernel_size=(3, 3), stride=(1, 1), padding=(1, 1), bias=False)\n","                (bn): BatchNorm2d(16, eps=1e-05, momentum=0.1, affine=True, track_running_stats=True)\n","                (activ): ReLU(inplace=True)\n","              )\n","              (conv2): ConvBlock(\n","                (conv): Conv2d(16, 16, kernel_size=(3, 3), stride=(1, 1), padding=(1, 1), bias=False)\n","                (bn): BatchNorm2d(16, eps=1e-05, momentum=0.1, affine=True, track_running_stats=True)\n","              )\n","            )\n","            (activ): ReLU(inplace=True)\n","          )\n","          (unit3): ResUnit(\n","            (body): ResBlock(\n","              (conv1): ConvBlock(\n","                (conv): Conv2d(16, 16, kernel_size=(3, 3), stride=(1, 1), padding=(1, 1), bias=False)\n","                (bn): BatchNorm2d(16, eps=1e-05, momentum=0.1, affine=True, track_running_stats=True)\n","                (activ): ReLU(inplace=True)\n","              )\n","              (conv2): ConvBlock(\n","                (conv): Conv2d(16, 16, kernel_size=(3, 3), stride=(1, 1), padding=(1, 1), bias=False)\n","                (bn): BatchNorm2d(16, eps=1e-05, momentum=0.1, affine=True, track_running_stats=True)\n","              )\n","            )\n","            (activ): ReLU(inplace=True)\n","          )\n","        )\n","        (stage2): Sequential(\n","          (unit1): ResUnit(\n","            (body): ResBlock(\n","              (conv1): ConvBlock(\n","                (conv): Conv2d(16, 32, kernel_size=(3, 3), stride=(2, 2), padding=(1, 1), bias=False)\n","                (bn): BatchNorm2d(32, eps=1e-05, momentum=0.1, affine=True, track_running_stats=True)\n","                (activ): ReLU(inplace=True)\n","              )\n","              (conv2): ConvBlock(\n","                (conv): Conv2d(32, 32, kernel_size=(3, 3), stride=(1, 1), padding=(1, 1), bias=False)\n","                (bn): BatchNorm2d(32, eps=1e-05, momentum=0.1, affine=True, track_running_stats=True)\n","              )\n","            )\n","            (identity_conv): ConvBlock(\n","              (conv): Conv2d(16, 32, kernel_size=(1, 1), stride=(2, 2), bias=False)\n","              (bn): BatchNorm2d(32, eps=1e-05, momentum=0.1, affine=True, track_running_stats=True)\n","            )\n","            (activ): ReLU(inplace=True)\n","          )\n","          (unit2): ResUnit(\n","            (body): ResBlock(\n","              (conv1): ConvBlock(\n","                (conv): Conv2d(32, 32, kernel_size=(3, 3), stride=(1, 1), padding=(1, 1), bias=False)\n","                (bn): BatchNorm2d(32, eps=1e-05, momentum=0.1, affine=True, track_running_stats=True)\n","                (activ): ReLU(inplace=True)\n","              )\n","              (conv2): ConvBlock(\n","                (conv): Conv2d(32, 32, kernel_size=(3, 3), stride=(1, 1), padding=(1, 1), bias=False)\n","                (bn): BatchNorm2d(32, eps=1e-05, momentum=0.1, affine=True, track_running_stats=True)\n","              )\n","            )\n","            (activ): ReLU(inplace=True)\n","          )\n","          (unit3): ResUnit(\n","            (body): ResBlock(\n","              (conv1): ConvBlock(\n","                (conv): Conv2d(32, 32, kernel_size=(3, 3), stride=(1, 1), padding=(1, 1), bias=False)\n","                (bn): BatchNorm2d(32, eps=1e-05, momentum=0.1, affine=True, track_running_stats=True)\n","                (activ): ReLU(inplace=True)\n","              )\n","              (conv2): ConvBlock(\n","                (conv): Conv2d(32, 32, kernel_size=(3, 3), stride=(1, 1), padding=(1, 1), bias=False)\n","                (bn): BatchNorm2d(32, eps=1e-05, momentum=0.1, affine=True, track_running_stats=True)\n","              )\n","            )\n","            (activ): ReLU(inplace=True)\n","          )\n","        )\n","        (stage3): Sequential(\n","          (unit1): ResUnit(\n","            (body): ResBlock(\n","              (conv1): ConvBlock(\n","                (conv): Conv2d(32, 64, kernel_size=(3, 3), stride=(2, 2), padding=(1, 1), bias=False)\n","                (bn): BatchNorm2d(64, eps=1e-05, momentum=0.1, affine=True, track_running_stats=True)\n","                (activ): ReLU(inplace=True)\n","              )\n","              (conv2): ConvBlock(\n","                (conv): Conv2d(64, 64, kernel_size=(3, 3), stride=(1, 1), padding=(1, 1), bias=False)\n","                (bn): BatchNorm2d(64, eps=1e-05, momentum=0.1, affine=True, track_running_stats=True)\n","              )\n","            )\n","            (identity_conv): ConvBlock(\n","              (conv): Conv2d(32, 64, kernel_size=(1, 1), stride=(2, 2), bias=False)\n","              (bn): BatchNorm2d(64, eps=1e-05, momentum=0.1, affine=True, track_running_stats=True)\n","            )\n","            (activ): ReLU(inplace=True)\n","          )\n","          (unit2): ResUnit(\n","            (body): ResBlock(\n","              (conv1): ConvBlock(\n","                (conv): Conv2d(64, 64, kernel_size=(3, 3), stride=(1, 1), padding=(1, 1), bias=False)\n","                (bn): BatchNorm2d(64, eps=1e-05, momentum=0.1, affine=True, track_running_stats=True)\n","                (activ): ReLU(inplace=True)\n","              )\n","              (conv2): ConvBlock(\n","                (conv): Conv2d(64, 64, kernel_size=(3, 3), stride=(1, 1), padding=(1, 1), bias=False)\n","                (bn): BatchNorm2d(64, eps=1e-05, momentum=0.1, affine=True, track_running_stats=True)\n","              )\n","            )\n","            (activ): ReLU(inplace=True)\n","          )\n","          (unit3): ResUnit(\n","            (body): ResBlock(\n","              (conv1): ConvBlock(\n","                (conv): Conv2d(64, 64, kernel_size=(3, 3), stride=(1, 1), padding=(1, 1), bias=False)\n","                (bn): BatchNorm2d(64, eps=1e-05, momentum=0.1, affine=True, track_running_stats=True)\n","                (activ): ReLU(inplace=True)\n","              )\n","              (conv2): ConvBlock(\n","                (conv): Conv2d(64, 64, kernel_size=(3, 3), stride=(1, 1), padding=(1, 1), bias=False)\n","                (bn): BatchNorm2d(64, eps=1e-05, momentum=0.1, affine=True, track_running_stats=True)\n","              )\n","            )\n","            (activ): ReLU(inplace=True)\n","          )\n","        )\n","        (final_pool): AvgPool2d(kernel_size=8, stride=1, padding=0)\n","      )\n","      (output): Linear(in_features=64, out_features=10, bias=True)\n","    )\n","    (2): CIFARPreResNet(\n","      (features): Sequential(\n","        (init_block): Conv2d(3, 16, kernel_size=(3, 3), stride=(1, 1), padding=(1, 1), bias=False)\n","        (stage1): Sequential(\n","          (unit1): PreResUnit(\n","            (body): PreResBlock(\n","              (conv1): PreConvBlock(\n","                (bn): BatchNorm2d(16, eps=1e-05, momentum=0.1, affine=True, track_running_stats=True)\n","                (activ): ReLU(inplace=True)\n","                (conv): Conv2d(16, 16, kernel_size=(3, 3), stride=(1, 1), padding=(1, 1), bias=False)\n","              )\n","              (conv2): PreConvBlock(\n","                (bn): BatchNorm2d(16, eps=1e-05, momentum=0.1, affine=True, track_running_stats=True)\n","                (activ): ReLU(inplace=True)\n","                (conv): Conv2d(16, 16, kernel_size=(3, 3), stride=(1, 1), padding=(1, 1), bias=False)\n","              )\n","            )\n","          )\n","          (unit2): PreResUnit(\n","            (body): PreResBlock(\n","              (conv1): PreConvBlock(\n","                (bn): BatchNorm2d(16, eps=1e-05, momentum=0.1, affine=True, track_running_stats=True)\n","                (activ): ReLU(inplace=True)\n","                (conv): Conv2d(16, 16, kernel_size=(3, 3), stride=(1, 1), padding=(1, 1), bias=False)\n","              )\n","              (conv2): PreConvBlock(\n","                (bn): BatchNorm2d(16, eps=1e-05, momentum=0.1, affine=True, track_running_stats=True)\n","                (activ): ReLU(inplace=True)\n","                (conv): Conv2d(16, 16, kernel_size=(3, 3), stride=(1, 1), padding=(1, 1), bias=False)\n","              )\n","            )\n","          )\n","          (unit3): PreResUnit(\n","            (body): PreResBlock(\n","              (conv1): PreConvBlock(\n","                (bn): BatchNorm2d(16, eps=1e-05, momentum=0.1, affine=True, track_running_stats=True)\n","                (activ): ReLU(inplace=True)\n","                (conv): Conv2d(16, 16, kernel_size=(3, 3), stride=(1, 1), padding=(1, 1), bias=False)\n","              )\n","              (conv2): PreConvBlock(\n","                (bn): BatchNorm2d(16, eps=1e-05, momentum=0.1, affine=True, track_running_stats=True)\n","                (activ): ReLU(inplace=True)\n","                (conv): Conv2d(16, 16, kernel_size=(3, 3), stride=(1, 1), padding=(1, 1), bias=False)\n","              )\n","            )\n","          )\n","        )\n","        (stage2): Sequential(\n","          (unit1): PreResUnit(\n","            (body): PreResBlock(\n","              (conv1): PreConvBlock(\n","                (bn): BatchNorm2d(16, eps=1e-05, momentum=0.1, affine=True, track_running_stats=True)\n","                (activ): ReLU(inplace=True)\n","                (conv): Conv2d(16, 32, kernel_size=(3, 3), stride=(2, 2), padding=(1, 1), bias=False)\n","              )\n","              (conv2): PreConvBlock(\n","                (bn): BatchNorm2d(32, eps=1e-05, momentum=0.1, affine=True, track_running_stats=True)\n","                (activ): ReLU(inplace=True)\n","                (conv): Conv2d(32, 32, kernel_size=(3, 3), stride=(1, 1), padding=(1, 1), bias=False)\n","              )\n","            )\n","            (identity_conv): Conv2d(16, 32, kernel_size=(1, 1), stride=(2, 2), bias=False)\n","          )\n","          (unit2): PreResUnit(\n","            (body): PreResBlock(\n","              (conv1): PreConvBlock(\n","                (bn): BatchNorm2d(32, eps=1e-05, momentum=0.1, affine=True, track_running_stats=True)\n","                (activ): ReLU(inplace=True)\n","                (conv): Conv2d(32, 32, kernel_size=(3, 3), stride=(1, 1), padding=(1, 1), bias=False)\n","              )\n","              (conv2): PreConvBlock(\n","                (bn): BatchNorm2d(32, eps=1e-05, momentum=0.1, affine=True, track_running_stats=True)\n","                (activ): ReLU(inplace=True)\n","                (conv): Conv2d(32, 32, kernel_size=(3, 3), stride=(1, 1), padding=(1, 1), bias=False)\n","              )\n","            )\n","          )\n","          (unit3): PreResUnit(\n","            (body): PreResBlock(\n","              (conv1): PreConvBlock(\n","                (bn): BatchNorm2d(32, eps=1e-05, momentum=0.1, affine=True, track_running_stats=True)\n","                (activ): ReLU(inplace=True)\n","                (conv): Conv2d(32, 32, kernel_size=(3, 3), stride=(1, 1), padding=(1, 1), bias=False)\n","              )\n","              (conv2): PreConvBlock(\n","                (bn): BatchNorm2d(32, eps=1e-05, momentum=0.1, affine=True, track_running_stats=True)\n","                (activ): ReLU(inplace=True)\n","                (conv): Conv2d(32, 32, kernel_size=(3, 3), stride=(1, 1), padding=(1, 1), bias=False)\n","              )\n","            )\n","          )\n","        )\n","        (stage3): Sequential(\n","          (unit1): PreResUnit(\n","            (body): PreResBlock(\n","              (conv1): PreConvBlock(\n","                (bn): BatchNorm2d(32, eps=1e-05, momentum=0.1, affine=True, track_running_stats=True)\n","                (activ): ReLU(inplace=True)\n","                (conv): Conv2d(32, 64, kernel_size=(3, 3), stride=(2, 2), padding=(1, 1), bias=False)\n","              )\n","              (conv2): PreConvBlock(\n","                (bn): BatchNorm2d(64, eps=1e-05, momentum=0.1, affine=True, track_running_stats=True)\n","                (activ): ReLU(inplace=True)\n","                (conv): Conv2d(64, 64, kernel_size=(3, 3), stride=(1, 1), padding=(1, 1), bias=False)\n","              )\n","            )\n","            (identity_conv): Conv2d(32, 64, kernel_size=(1, 1), stride=(2, 2), bias=False)\n","          )\n","          (unit2): PreResUnit(\n","            (body): PreResBlock(\n","              (conv1): PreConvBlock(\n","                (bn): BatchNorm2d(64, eps=1e-05, momentum=0.1, affine=True, track_running_stats=True)\n","                (activ): ReLU(inplace=True)\n","                (conv): Conv2d(64, 64, kernel_size=(3, 3), stride=(1, 1), padding=(1, 1), bias=False)\n","              )\n","              (conv2): PreConvBlock(\n","                (bn): BatchNorm2d(64, eps=1e-05, momentum=0.1, affine=True, track_running_stats=True)\n","                (activ): ReLU(inplace=True)\n","                (conv): Conv2d(64, 64, kernel_size=(3, 3), stride=(1, 1), padding=(1, 1), bias=False)\n","              )\n","            )\n","          )\n","          (unit3): PreResUnit(\n","            (body): PreResBlock(\n","              (conv1): PreConvBlock(\n","                (bn): BatchNorm2d(64, eps=1e-05, momentum=0.1, affine=True, track_running_stats=True)\n","                (activ): ReLU(inplace=True)\n","                (conv): Conv2d(64, 64, kernel_size=(3, 3), stride=(1, 1), padding=(1, 1), bias=False)\n","              )\n","              (conv2): PreConvBlock(\n","                (bn): BatchNorm2d(64, eps=1e-05, momentum=0.1, affine=True, track_running_stats=True)\n","                (activ): ReLU(inplace=True)\n","                (conv): Conv2d(64, 64, kernel_size=(3, 3), stride=(1, 1), padding=(1, 1), bias=False)\n","              )\n","            )\n","          )\n","        )\n","        (post_activ): PreResActivation(\n","          (bn): BatchNorm2d(64, eps=1e-05, momentum=0.1, affine=True, track_running_stats=True)\n","          (activ): ReLU(inplace=True)\n","        )\n","        (final_pool): AvgPool2d(kernel_size=8, stride=1, padding=0)\n","      )\n","      (output): Linear(in_features=64, out_features=10, bias=True)\n","    )\n","  )\n",")"]},"metadata":{},"execution_count":28}]},{"cell_type":"markdown","source":["### dim_mifgsm\n"],"metadata":{"id":"Kpe1EJOUr09I"}},{"cell_type":"code","source":["adv_examples, dim_mifgsm_acc, dim_mifgsm_loss = gen_adv_examples(ensemble_model, adv_loader, mifgsm, loss_fn)\n","print(f'dim_mifgsm_acc = {dim_mifgsm_acc:.5f}, dim_mifgsm_
…
